model.pt (torch, 115256 bytes, 50 tensors)

module.conv1.weight f4 [8, 2, 5, 5]
000000 49 41 93 3e 48 0e 1f 3f 39 9b b9 3e ed 5c 94 3e
       0.28760746 0.62131166 0.36251238 0.28977147
000010 c5 1f 29 3e 69 70 83 3d 16 d2 01 3d 89 87 c6 bc
       0.16516025 0.06417925 0.031694494 -0.02423455
000020 27 ed 48 bd 9a f4 c8 3d f2 9c d0 bc 2d 71 d3 3e
       -0.04905429 0.09812279 -0.025465462 0.41297284
000030 f8 da b4 3e 2f 46 00 3e 3c 13 e6 3b 4d 95 39 be
       0.3532331 0.12526773 0.007021336 -0.1812336
000040 d4 5d 20 3e fb e4 97 bc 78 23 84 3c fb b4 30 3c
       0.15660793 -0.018541804 0.016130194 0.010785337
000050 f5 81 0e 3d 28 94 69 be 26 6c 8d 3e 25 13 bd 3d
       0.034791905 -0.22810423 0.27621573 0.09232167
000060 01 4b 77 3e 89 fb 78 3e a0 df c3 3e 65 35 2b 3f
       0.24149705 0.24314703 0.3825655 0.6687835
000070 b5 63 3b 3e 36 be f7 bb 18 33 c8 bd 78 a0 9c bd
       0.18299754 -0.0075605167 -0.0977537 -0.076477945
000080 14 68 15 3c 8d ab 54 3e 3f ae c7 3d 42 b2 b2 be
       0.009119052 0.20768566 0.09750032 -0.34901625
000090 5e c1 d6 bc a6 dd ab be ab 46 2e 3e 76 e0 9d 3e
       -0.026215252 -0.33567542 0.17019145 0.30835313
0000a0 76 2a 6e ba 6b 83 53 be 7e 60 29 be ea bf a1 3d
       -0.00090853067 -0.206556 -0.16540715 0.07897933
0000b0 5b 28 57 be 9d b9 cd 3d a5 4d 53 be 27 d1 08 3d
       -0.21011488 0.100451685 -0.20635088 0.03340259
0000c0 9a a5 bb 3d be bf 83 bd 72 38 5f 3e fa d3 5a be
       0.09162445 -0.06433056 0.21798876 -0.21369925
0000d0 40 93 16 3e 69 41 bc 3e b8 9c 02 3e 9c 34 3f be
       0.14704609 0.36768654 0.12755096 -0.18672413
0000e0 11 28 55 3e af ea 52 3d 78 2e 82 bd 5d d7 eb 3c
       0.20816065 0.051493343 -0.063565195 0.028789217
0000f0 a7 33 a1 3e dd 20 b5 3c 3c 09 84 3c 2e 7c fe bd
       0.3148472 0.022110397 0.016117685 -0.12426029
000100 fe ea cc bd 88 7d 7d 3e 2e 9f 07 3e fa ac a7 be
       -0.10005759 0.24754918 0.13244316 -0.32749158
000110 04 f0 0c 3d 0a 6e e3 3d f9 6a fd 3c 8d 13 d9 3e
       0.034408584 0.11104973 0.030934798 0.4239773
000120 82 c8 99 3d 0d d7 0d 3d e0 66 86 3d 6f ac 4d 3e
       0.07508947 0.034628917 0.065625906 0.2008531
000130 b1 cb 76 bd d9 69 94 3d 16 83 d0 3e 13 5d 60 bd
       -0.06025285 0.07246751 0.4072501 -0.054776262
000140 a4 b5 62 3c c1 91 f0 3d 56 ed db 3e f0 e2 be be
       0.013837252 0.1174655 0.4295451 -0.37282515
000150 29 4e 5b 3d 2e 72 b0 bd 77 57 8a 3d c3 fa d9 3e
       0.053541336 -0.08615528 0.06754964 0.42574129
000160 8a 55 e6 bd 4a 96 a6 3d 75 cc 17 be ac 47 c6 3e
       -0.11246784 0.08134134 -0.14824088 0.38726556
000170 e0 32 90 3c 7d 1d d3 3e ac dd 1b be fd ba 14 be
       0.017602384 0.41233435 -0.1522128 -0.14524455
000180 61 61 bd be 91 46 8e 3e ea eb c6 be 6a 42 40 3e
       -0.36988357 0.27788213 -0.38851863 0.18775335
000190 28 b3 b7 be 55 07 30 3e 8d 59 85 be d0 b0 31 be
       -0.35878873 0.17190297 -0.26044884 -0.17352605
0001a0 33 12 98 bd f9 34 f6 ba 1c c0 b5 be b1 6a 9a 3d
       -0.07425346 -0.0018784098 -0.3549813 0.07539881
0001b0 9c 17 3d 3e 16 ae 37 3d 77 c9 30 be c3 d1 1f 3c
       0.18466038 0.044843756 -0.17264353 0.009754601
0001c0 91 e5 41 3e a0 7d b6 be 93 88 aa be 8f 84 a1 bd
       0.18935229 -0.3564272 -0.33307323 -0.07886612
0001d0 ac 99 00 be 64 09 1d be bc 34 6a b8 2b 22 55 3d
       -0.12558621 -0.15335613 -5.583906e-05 0.05203454
0001e0 f9 f7 0c 3d 09 fa 97 3d e2 6a b2 3e e8 73 f9 bc
       0.034416173 0.07420737 0.3484717 -0.030450776
0001f0 9d d3 14 be 70 c4 0e 3e 69 4f 9c bd 46 26 a2 bd
       -0.14533849 0.13942122 -0.07632334 -0.07917456
000200 29 79 67 be 91 3c 51 be 2f 15 a7 bc 6f e7 25 3e
       -0.22604813 -0.2043326 -0.020395843 0.16201566
000210 99 93 af be f4 ff 09 3d 2b 20 b2 bc 32 6c 61 3d
       -0.34292296 0.03369136 -0.021743855 0.055034824
000220 de cb 02 be 94 00 5d be 26 11 a3 bd 57 5c 3d 3e
       -0.12773082 -0.21582252 -0.07962255 0.18492256
000230 8e 55 83 be 07 fd 96 be 8a dd fc be 1e 34 51 be
       -0.2565121 -0.2948992 -0.4938777 -0.20430037
000240 2c 50 49 bc ef 87 21 3e b8 11 1c be fa 01 7c 3e
       -0.012287181 0.15774511 -0.15241134 0.24610129
000250 cc 03 23 be c2 1b 74 3e aa 77 53 be de 7b aa bc
       -0.15919417 0.23838714 -0.20651117 -0.020811018
000260 d7 0a 17 be 8b 97 d9 bd ee 3a 8e bd eb 4e b3 be
       -0.14750229 -0.10624608 -0.06944834 -0.35021147
000270 bb d3 a1 be f7 29 7b be c0 8f 12 be 62 0b 7e bd
       -0.3160685 -0.24527727 -0.14312649 -0.062022574
000280 8d 0e 36 3e e0 70 ef bd 4a 01 e5 bb 1f e7 c6 bd
       0.17778988 -0.11691451 -0.006988679 -0.097120516
000290 44 32 92 bd c0 80 4f 3d 3b aa c9 3d c1 33 f2 bd
       -0.07138494 0.050659895 0.09846922 -0.118262775
0002a0 e9 fc f5 3c 16 79 bc bd 55 10 b2 bd b6 82 24 3e
       0.030027824 -0.09202783 -0.08694521 0.16065487
0002b0 7e 70 b5 bd 81 a8 49 bd b7 f6 42 3d 21 a9 c0 3d
       -0.08859347 -0.049232963 0.047598567 0.09407259
0002c0 22 c3 d4 3d 74 a4 ff bd b5 31 8d 3c b7 69 a8 be
       0.10388781 -0.12482539 0.017235616 -0.32893154
0002d0 67 64 60 be 8e 84 4b 3d 45 df c6 be 0e 4a a5 bd
       -0.219133 0.04968696 -0.38842216 -0.080707654
0002e0 0a a3 00 be d0 21 18 bd 22 6f bc be 13 b5 9a 3d
       -0.12562194 -0.03714162 -0.36803538 0.075540684
0002f0 39 21 33 be 77 35 40 3e ed f8 f2 bd b3 5b 8b 3d
       -0.17493142 0.18770395 -0.11863885 0.068045996
000300 60 d2 d0 3d ae 0d ff bd 27 25 9f 3d 03 cf 85 3e
       0.10196376 -0.12453781 0.07770758 0.261345
000310 c3 4d e2 bd e7 32 85 be b8 19 10 be 9a 61 b4 3e
       -0.11049988 -0.26015398 -0.14072311 0.35230714
000320 c2 5e 1d be 67 15 df bc 6c 23 90 3d 59 a6 08 3e
       -0.15368178 -0.027231885 0.07038006 0.13344707
000330 5a 24 70 bc c7 dd 8d be 4d a5 b9 3d ae 33 30 3d
       -0.014657104 -0.27708265 0.09064732 0.043018036
000340 f0 41 1c 3e fe c4 34 3e 33 55 6d 3d 74 e5 d7 be
       0.15259528 0.17653272 0.05794258 -0.42167246
000350 23 61 63 3e 02 51 00 3e ae 28 37 bd ff 6d ca bc
       0.22205023 0.12530902 -0.04471653 -0.024710653
000360 a2 51 b4 bd a3 b5 f0 3d d4 ba 95 bd c3 43 34 bd
       -0.08804633 0.117533945 -0.07311025 -0.044009935
000370 b5 c5 3c bc 77 6c f8 3d 5f d9 f6 bd cd fd 90 3e
       -0.011521746 0.12130063 -0.12053179 0.28318635
000380 89 53 2d 3e 7e 79 93 be 25 52 03 be 87 32 be 3d
       0.16926397 -0.2880363 -0.12824304 0.09286981
000390 b3 a6 eb 3c 95 0e 7d bd bd cf 9f bd 6a b9 2b be
       0.028766012 -0.061781485 -0.07803295 -0.16769949
0003a0 91 16 9e 3d 90 05 bd 3e 2a 60 6c 3d 9b 87 e3 3d
       0.07719148 0.36918306 0.057708897 0.11109849
0003b0 55 6d 3a 3e 15 12 a8 bd 49 88 9f 3e 02 12 9e 3d
       0.1820577 -0.08206574 0.31158665 0.077182785
0003c0 6d a5 00 3e d2 51 bc be a5 01 76 be 38 dc 04 be
       0.12563105 -0.36781174 -0.24024065 -0.12974632
0003d0 66 b8 fd 3d e9 e0 95 bd e2 41 7e be 70 61 3a 3e
       0.12388687 -0.07318289 -0.2482982 0.18201232
0003e0 d7 86 5c 3e 03 df 05 be 3b 7a ef 3d 6d a0 46 3d
       0.21535812 -0.13073353 0.116932355 0.048492838
0003f0 61 19 c2 bc b5 6e 93 3e 24 be cc 3d 1f 2e d3 3d
       -0.023693742 0.287954 0.09997204 0.10311531

module.conv1.bias f4 [8]
000000 23 7c 9f 3c 3b 48 0a 3d 78 1c dc 3d d5 98 6b bd
       0.019468373 0.03376029 0.107476175 -0.0575188
000010 10 61 60 3d 25 69 f7 bc bc 26 eb 3c 69 4c 9b bd
       0.054780066 -0.030201504 0.028704993 -0.075829335

module.bn1.weight f4 [8]
000000 f1 cc 89 3f 0e a7 64 3f 57 6c 83 3f 7e 2a 78 3f
       1.0765668 0.89317405 1.0267438 0.9693984
000010 ba 3e 7e 3f ff 8a 82 3f 2f bf 78 3f 4f 0a 84 3f
       0.99314463 1.0198668 0.97166723 1.0315646

module.bn1.bias f4 [8]
000000 0d 3f 9a 3c 62 25 e0 3d 80 d5 db bd 6a 6f 8e 3d
       0.018828893 0.1094463 -0.10734081 0.06954844
000010 fc 4e 6f 3d 13 41 2d 3c bf b3 b6 bd 44 b4 96 bd
       0.058424935 0.010574597 -0.089210026 -0.07358602

module.bn1.running_mean f4 [8]
000000 b7 56 cf 3f 3b bf 96 3f f8 e7 a4 3f c1 07 8f 3f
       1.6198338 1.1777109 1.2883291 1.1174241
000010 b0 76 79 3e a2 4a c7 3f 87 86 1d 3f 93 33 df 3e
       0.24361682 1.5569651 0.615334 0.43594036

module.bn1.running_var f4 [8]
000000 c3 bd 73 40 2a c2 f9 3f 9a 07 81 40 36 c9 53 40
       3.8084571 1.9512379 4.032178 3.309156
000010 c3 65 ff 3d 33 f2 b7 40 d0 3d 80 3f e4 4c ea 3e
       0.124705814 5.7483153 1.0018864 0.45761788

module.conv2.weight f4 [16, 8, 3, 3]
000000 61 fd d1 3d 48 94 f5 bd 3c 0f f3 bd 55 f4 04 3e
       0.10253406 -0.11991173 -0.1186814 0.1298383
000010 f3 21 31 bd 42 e2 51 be 57 0b 09 3d 7d 38 32 3d
       -0.043245267 -0.20496467 0.03345808 0.043510903
000020 69 11 90 bd 27 32 e5 3d 63 97 a4 3e 27 bc 28 3d
       -0.07034571 0.111912064 0.3214675 0.04119506
000030 ff e2 24 bd 08 92 13 be 7e 9b 52 be 20 97 33 3e
       -0.040255543 -0.14411175 -0.20567128 0.17538118
000040 8e f1 5a be d6 be 96 bd 01 25 c7 bc ca c4 51 bb
       -0.21381208 -0.07360618 -0.024309637 -0.0032008165
000050 07 00 4f 3e 65 d9 fc bd 32 7a db 3d b8 f1 d6 3d
       0.20214854 -0.12346152 0.10716666 0.10495323
000060 d3 09 a3 3e 20 c4 d2 bd 80 91 02 3d 05 b8 91 be
       0.31843433 -0.10291314 0.03187704 -0.28460708
000070 50 72 06 be cd c5 53 3e 60 ef 06 3e d6 84 de 3d
       -0.13129544 0.20680924 0.13177252 0.1086518
000080 75 da e8 3c 6c 3d db be 5e aa b0 bd 3d fc 56 bd
       0.02842448 -0.428203 -0.08626245 -0.052486647
000090 30 7f 65 3e 1c 3d 03 be dc 99 3f 3e 64 de 9e 3e
       0.224118 -0.1281628 0.18711036 0.31029046
0000a0 46 0c 04 be 19 2e 12 3e 9e 50 ec 3d 72 f8 80 3d
       -0.12895307 0.14275397 0.11538814 0.06297387
0000b0 25 1b 19 3d 04 5e f7 3d 0a 36 8b be 87 64 80 bd
       0.037379403 0.12078479 -0.27189666 -0.06269174
0000c0 51 d7 d4 3d bf 25 cd 3d b9 d8 94 bd a7 97 93 bd
       0.10392631 0.10016965 -0.07267899 -0.0720666
0000d0 ac 28 b8 3c f9 5b 26 3e e6 b7 2b 3e 23 18 c4 3e
       0.022480331 0.16246022 0.1676937 0.38299665
0000e0 50 45 08 3e 5f 0b f1 bd 15 3f 75 be a5 39 1c 3d
       0.1330769 -0.11769747 -0.23949845 0.03814091
0000f0 55 16 3b 3d 2c 63 84 3d 0b e8 6e 3e ef 00 74 3d
       0.045675594 0.06464228 0.23330705 0.059571203
000100 6e 4f 9e bc eb f6 50 3d a7 69 99 bc 21 5b 28 3d
       -0.019324984 0.05101673 -0.018727137 0.041102532
000110 2f 0a 29 bd 0e 1b c4 3c 9f 20 93 3e 06 8e cf bd
       -0.041269477 0.023938682 0.28735825 -0.10134511
000120 72 4c 17 be cb ca b3 3d 6b 4b 08 3d ba 8f d6 bd
       -0.14775255 0.08778914 0.03327505 -0.104766324
000130 b1 f9 f2 bb ca b3 61 be 31 60 2c 3d e2 92 d5 3e
       -0.0074150194 -0.2204124 0.042083923 0.41713625
000140 11 04 1c 3d 02 ba 54 3d 6b 26 32 be af 07 bb bd
       0.038089816 0.051935203 -0.17397468 -0.09132325
000150 b9 fd 1c be 8b ec 9f bd 22 74 39 bc c6 1b a7 3d
       -0.15331163 -0.07808789 -0.011319192 0.08159594
000160 08 13 08 3d 0b 91 56 3d b2 2e cb 3e 0f 49 bb bd
       0.033221275 0.052384418 0.39684063 -0.09144794
000170 4a 82 06 3e 6e 88 07 be ee 33 47 3e b2 b8 89 3e
       0.13135639 -0.13235638 0.19453403 0.26898724
000180 74 9d 15 be 03 92 a1 3c 79 aa 29 bd e9 4b 25 be
       -0.14610845 0.019722944 -0.04142234 -0.16142239
000190 0e 16 08 be 1f d7 30 be d1 a3 8e 3e a1 90 5c 3c
       -0.13289663 -0.17269562 0.27859357 0.013462217
0001a0 02 fd 30 bd 86 82 2c be 39 f3 53 bd ba 0d 39 3e
       -0.043210037 -0.16846666 -0.051745627 0.18071643
0001b0 6b fe 12 be c5 25 8d bd 49 b2 ad bd 10 26 38 be
       -0.14354865 -0.068919696 -0.08481271 -0.1798327
0001c0 cc 96 c6 bd a4 be 3f be ff 87 85 3e bd 74 96 3a
       -0.09696731 -0.18725067 0.2608032 0.0011478883
0001d0 18 86 ed 3d 9c f1 9a 3e c1 d2 b3 be c4 76 8d 3d
       0.11597842 0.30262458 -0.3512173 0.06907418
0001e0 c2 f6 ad bd 2c b2 f0 bd fc ea 84 bd e5 8b fe bd
       -0.08494331 -0.117527336 -0.06490132 -0.124290265
0001f0 9f 94 a9 3d 81 cf 69 3e b2 4d 25 be 9c 2a 0f 3c
       0.082803 0.22833063 -0.1614292 0.008738186
000200 61 4d 08 3e 08 09 9e 3e 0e 93 6c ba e1 eb ec be
       0.13310768 0.30866265 -0.00090245984 -0.4627371
000210 33 9e 16 3e 04 78 3f 3e 9a c9 68 bd 4a a8 23 3e
       0.14708786 0.18698126 -0.056832887 0.15982166
000220 84 5c 9e bd 09 79 27 be 82 8b c0 3e c8 08 d8 3e
       -0.0773249 -0.16354765 0.37606436 0.421942
000230 ba 6c 84 3e 08 df eb 3d 31 90 d1 bd 0a ea 11 3e
       0.25864202 0.11517149 -0.102325805 0.14249435
000240 c2 13 22 be d1 80 64 3c c7 2d d2 bd 34 df 75 3e
       -0.1582785 0.013946728 -0.102626376 0.24010926
000250 17 f6 35 be 2b b7 a5 3d 71 40 a0 3c 4a f3 58 bd
       -0.17769657 0.08091577 0.019561978 -0.052966394
000260 f4 32 bb bd 91 07 9d 3d 63 12 7e bd fb 69 5a bd
       -0.09140578 0.07667459 -0.062029254 -0.053323727
000270 43 06 6c 3e 90 bc 80 bc 39 89 c1 3e 73 61 aa bd
       0.23049264 -0.015714914 0.37800005 -0.08319368
000280 56 a2 90 3d dc 93 70 3e 6d 9e 4a be 03 75 b4 bd
       0.07062213 0.23493904 -0.19786997 -0.08811381
000290 7e ed 86 3e a8 fc 9a 3d 41 62 57 3d 66 31 5c be
       0.26353067 0.075677216 0.052583937 -0.21503219
0002a0 0b 6b 0f 3e 81 f9 1d be e7 15 a8 bd 26 bb 9b 3e
       0.14005677 -0.1542721 -0.082073025 0.3041622
0002b0 a8 c7 13 be 64 5d e9 bd 43 e8 c4 3d 22 8c ec bd
       -0.14431632 -0.11394766 0.09614613 -0.11550166
0002c0 e7 b0 ec bd 54 44 44 be 1a 81 75 be d3 e4 97 3e
       -0.11557179 -0.1916669 -0.2397503 0.29666767
0002d0 c6 fb cb 3c 3b 6b 99 3d b2 a0 4e 3e 76 14 19 3e
       0.024900328 0.07491156 0.20178488 0.14949211
0002e0 cd 55 17 3d d8 ee 35 3e 7b 55 2f 3d 38 5c 09 3e
       0.03694706 0.17766893 0.04280613 0.13414085
0002f0 89 a7 d2 3e 0f 81 90 be 73 60 59 be fe 17 11 3e
       0.41143444 -0.28223464 -0.21228199 0.14169309
000300 d2 71 fc bd d3 eb 22 be ed ed ef be c7 7b 0a 3c
       -0.12326397 -0.15910272 -0.4686121 0.008452362
000310 c9 0b c8 be ea 55 d5 be 09 f6 9b 3c 0e bb 27 bc
       -0.3907149 -0.4166711 0.019038217 -0.010237468
000320 f3 25 4a 3e ac e9 26 be 5e 98 2c be 4c d1 e7 bd
       0.19741039 -0.16300076 -0.16854998 -0.11319217
000330 e7 e9 ab 3e da 4c 9d bd f7 72 0a 3e f2 a9 f9 bd
       0.3357689 -0.07680674 0.13520418 -0.121906176
000340 d3 e6 4d be b0 a3 a2 bd 93 cb 0d 3e 14 f5 a0 bd
       -0.20107584 -0.07941377 0.13847189 -0.07859245
000350 e5 3d 5a 3e ef 69 39 be fb 00 82 be 57 19 41 be
       0.21312673 -0.18106817 -0.25391373 -0.18857323
000360 69 b6 bd 3e b9 c2 2c be 27 8a 81 3e 85 fc fe 3c
       0.3705323 -0.16871156 0.25300714 0.03112627
000370 b5 9b f1 3d b8 f0 da 3e 81 42 45 3d 18 4b cc 3d
       0.11797277 0.4276178 0.048159126 0.099752605
000380 04 96 7d be 0f b1 38 3e 8c 6f 18 3e 6e 81 fa 3d
       -0.24764258 0.18036292 0.14886302 0.12231718
000390 85 b4 97 be 78 5c 28 be c0 85 6b be 7b 32 a0 3d
       -0.29629913 -0.16441524 -0.2300024 0.078221284
0003a0 32 e8 10 be 20 ee 0c 3d df 4c 83 be e6 af ab bd
       -0.14151075 0.03440678 -0.25644585 -0.08383159
0003b0 33 35 59 be b6 a0 86 bd 1a de 36 3e d7 bf d9 3d
       -0.212117 -0.06573622 0.17858163 0.10632294
0003c0 3e 2a e9 3a e4 1b 3f be b5 7b d0 3e 29 bf c7 bc
       0.0017789078 -0.18662983 0.4071938 -0.024383144
0003d0 a4 e7 9d bd 46 78 c6 bb 1a fb ba bd b0 55 57 be
       -0.077101976 -0.006056818 -0.09129925 -0.21028781
0003e0 d3 18 4f be 96 68 8b 3d ea f5 ea 3d e2 4f 92 be
       -0.20224313 0.068070576 0.11472686 -0.2857657
0003f0 27 15 a0 3c c5 9d f6 3d 3a 29 35 3e 3a 6a a9 be
       0.019541336 0.12041811 0.17691508 -0.33088857

module.conv2.bias f4 [16]
000000 54 cc 06 be 51 33 9f bd 36 15 25 3d 1b 14 a6 bd
       -0.13163882 -0.0777346 0.04030343 -0.081093036
000010 3c 56 05 3d 43 f1 9f bd 32 8f 87 3c 1b 34 12 bd
       0.032552943 -0.07809689 0.016547773 -0.035694223
000020 d8 6d f4 3c 60 51 90 3d 14 13 2f bc 83 78 d7 bd
       0.029837534 0.07046771 -0.010685701 -0.10521033
000030 39 68 1e 3d b6 e1 9a bd 57 d4 83 3c 8b b5 12 bd
       0.038673613 -0.07562582 0.016092462 -0.035817664

module.bn2.weight f4 [16]
000000 3f ca 6b 3f a8 1b 8e 3f 24 2f 81 3f c0 e1 7b 3f
       0.9210548 1.110219 1.0092511 0.9839134
000010 61 e3 87 3f f3 01 76 3f df f0 87 3f 63 26 7f 3f
       1.0616266 0.96096724 1.0620383 0.9966795
000020 b1 54 79 3f a3 e3 7a 3f 79 9a 6f 3f b9 c8 82 3f
       0.97394854 0.98003596 0.9359508 1.0217506
000030 cc 7c 7f 3f ad 9d 7b 3f 47 9d 6e 3f c9 f4 82 3f
       0.997998 0.9828747 0.93208736 1.0230953

module.bn2.bias f4 [16]
000000 a3 c0 78 bd 93 92 e4 bd d1 94 0b bd dc ea f8 bb
       -0.060730588 -0.11160769 -0.03407747 -0.007596357
000010 a6 61 75 bd 34 27 4c 3d 32 b7 f3 bd 23 5b 26 3c
       -0.059907578 0.049842075 -0.11900176 0.010153565
000020 f4 00 13 be 9f 66 fc bd 87 2f 62 3e ff ad da bd
       -0.14355832 -0.12324261 0.22088443 -0.10677718
000030 37 22 23 3c 53 27 c3 bc b3 33 ad bd 2e f3 8b 3d
       0.009956888 -0.023822462 -0.084571265 0.06833492

module.bn2.running_mean f4 [16]
000000 3a 11 3e 3e 0f 54 b5 3e bb 83 a4 3f 14 18 33 3f
       0.18561259 0.35415694 1.2852701 0.69958615
000010 38 65 88 3f e9 3c b7 3e 54 14 79 3f ec b1 07 3f
       1.065589 0.35788658 0.97296643 0.5300586
000020 b0 9a c1 3e a5 b7 e7 3e 45 65 4c 3f c4 fc fc 3e
       0.3781333 0.45257297 0.79842025 0.49411595
000030 d2 ee 14 3f 4b f5 14 3f 60 bf 61 3f b6 5a 33 3f
       0.5817691 0.5818679 0.8818264 0.7006029

module.bn2.running_var f4 [16]
000000 bc 3b 43 3e fd bf 8e 3f fa 15 d1 3f 85 7c 16 3f
       0.19065756 1.115234 1.6334832 0.5878375
000010 e8 8b 20 40 c8 19 a1 3e b2 15 e6 3f 69 55 1f 3f
       2.5085392 0.31464982 1.7975371 0.622397
000020 65 13 ac 3e 74 09 fc 3e 42 d2 82 3f 22 82 67 3f
       0.33608547 0.49225962 1.0220416 0.9043294
000030 1a e7 5d 3f c5 14 21 3f 47 5c 88 3f fd f2 ec 3f
       0.8668076 0.62922317 1.0653161 1.8511654

module.conv3.weight f4 [32, 16, 3, 3]
000000 f7 02 61 be e2 d5 4a 3c 87 91 54 be 4f c0 c9 3c
       -0.21973787 0.012380095 -0.2075864 0.024627833
000010 6f 0f 5f bc a0 4e 8c 3d ff 1b 13 3c 8b cc 5f 3e
       -0.0136145195 0.06850934 0.008978843 0.2185537
000020 b5 6f aa bd b8 77 c8 3b 6b ad 1d 3e 13 4d fe 3d
       -0.08322088 0.006117787 0.15398185 0.124170445
000030 5a 37 21 3e cb 29 2a 3e 81 7b 7a 3d 2d cf 85 3d
       0.15743771 0.16617505 0.06115294 0.06533656
000040 9f 2d 4d 3d d1 76 03 bd 8c df 76 3c 07 df 8a 3e
       0.050092336 -0.032095734 0.015067946 0.2712328
000050 2e dd 30 3d 69 9c 7f 3c 7d 87 21 3d 87 a5 4d 3c
       0.043179683 0.015601256 0.039435852 0.012551672
000060 ac a8 f6 bd e2 26 57 3c 8a d7 e3 bd 03 c6 96 3c
       -0.1204389 0.013131829 -0.11125095 0.018404966
000070 77 16 c2 bd 0e 41 d6 3c 92 dc 49 bb 64 73 df 3d
       -0.09476941 0.026154067 -0.0030801636 0.10910681
000080 ac bc 47 3c 86 40 60 bd ff 15 96 3d 73 9d 3e 3e
       0.012190979 -0.054749034 0.07328414 0.1861475
000090 c0 f1 5a bd ae d4 ff bd 5c b1 85 bd 02 60 e9 bd
       -0.053453207 -0.12491737 -0.06527969 -0.11395265
0000a0 d9 cc 86 bd bb 4d fd bd b0 6c 5a 39 2d 51 d1 3d
       -0.0658204 -0.123683415 0.0002083059 0.10220561
0000b0 f8 26 55 bd e9 2b bf 3d 92 ec 12 3d 88 c5 62 3d
       -0.052039117 0.09334547 0.035870142 0.05536416
0000c0 85 31 f0 3d 9d bc 87 3d f4 96 e8 3d 36 ac ef bd
       0.11728195 0.06627772 0.11356917 -0.117027685
0000d0 e6 4a 69 bd 10 2d 1f 3d d5 e9 ec 3d cd 84 a5 3d
       -0.056956194 0.038861334 0.115680374 0.0808197
0000e0 c2 50 93 bd 5c ec 07 bd 74 d1 96 3d ef 7b 08 3d
       -0.07193138 -0.033184394 0.07364169 0.033321317
0000f0 5a fc c8 3c 1e d2 97 be 32 73 48 bc 51 05 26 be
       0.024534393 -0.29652494 -0.012234496 -0.16212966
000100 d6 13 b0 3d 12 94 97 3d db fb ed bb 26 69 00 bb
       0.085975334 0.07401289 -0.0072626895 -0.0019593923
000110 cb 2b aa 3d da 71 d8 3d 2b 8b ac 3d 1d 2e d9 bb
       0.08309134 0.105685905 0.08424982 -0.0066278116
000120 34 29 0c be 69 ef 3c bd 90 26 b6 bd d2 ef 84 3c
       -0.13687593 -0.046126757 -0.08894074 0.016227636
000130 9d 8e e6 bd 30 b6 cd bb 85 47 45 be 8c c0 b6 3a
       -0.1125767 -0.006277822 -0.19265564 0.0013942881
000140 ab 2b 95 bd ea 2c b0 3d c0 cb 2d 3e 5e 8c 38 3e
       -0.0728372 0.08602317 0.16972256 0.18022296
000150 b9 06 a6 bd d7 ec 90 3e 3d 86 a1 3c 4e 58 9c 3e
       -0.08106751 0.28305694 0.01971733 0.3053612
000160 fa 56 f2 3d db 2c 9d bd 3f ca 39 3e 2d 09 85 bd
       0.11832996 -0.07674571 0.18143557 -0.06495891
000170 10 2a dc bb fa 77 0f 3e b1 56 44 3e ee c3 17 3e
       -0.0067188814 0.14010611 0.19173695 0.14820835
000180 4c fa 49 ba d2 d8 a5 3d e4 14 4c 3e b1 57 00 bd
       -0.00077048386 0.08097996 0.19929844 -0.03133363
000190 2a 59 5b bd a9 8e d8 3d 73 9c e2 bb e0 61 43 bc
       -0.05355183 0.10574085 -0.006915623 -0.011925191
0001a0 16 84 95 bc ec f6 d4 bd ca a7 6c bd 77 08 18 be
       -0.01825146 -0.10398659 -0.057777204 -0.14846979
0001b0 7a ca da bd 56 e4 49 be 9d 40 a7 bd 3b 3c c2 3d
       -0.106831506 -0.1971601 -0.08166621 0.09484144
0001c0 ce 2c 3f 3d b6 1b b4 bd 46 29 8b bb c0 92 97 3d
       0.04667359 -0.08794348 -0.0042468635 0.07401037
0001d0 6b 6e 2c 3e ae 6f f7 3d 55 9a 18 3c 7e ee 68 3d
       0.16838996 0.12081848 0.009314139 0.05686807
0001e0 74 da dc bc fc af 8c 3c 50 06 32 bd 91 3b 54 be
       -0.026959635 0.01717376 -0.04346305 -0.20725848
0001f0 9b f5 ad 3d 81 a1 7a 3d c7 b3 bf bc a3 02 6d bd
       0.08494111 0.06118918 -0.023401154 -0.057863843
000200 f2 7a 7a 3e fe a1 fc 3d ee 09 a6 3d 35 03 34 3e
       0.24460962 0.12335585 0.08107363 0.17579348
000210 75 72 53 3e b6 66 92 bb 1a 22 18 3d d1 f7 cc 3d
       0.2064913 -0.0044678105 0.037141897 0.10008205
000220 ee 54 3c be 7c 20 51 3d 4f 5e 1b bc 3b bf 1a be
       -0.18391773 0.05105637 -0.009482934 -0.15112011
000230 c5 2c 00 be df 10 8a 3d e4 98 25 3d 95 68 89 3d
       -0.12517078 0.06741499 0.04042901 0.067094006
000240 e7 88 06 3e f3 ad 74 3d 2d c7 03 3e bb 54 16 3d
       0.13138162 0.059736203 0.12868948 0.0367019
000250 58 b6 24 3e 77 0b 02 3e 8b 6e 3f 3e f6 a6 38 3e
       0.16085184 0.12699686 0.18694513 0.1803244
000260 5a cb 37 3e 85 63 00 be d2 e6 3c be 6e ff fb 3d
       0.17948666 -0.12537964 -0.18447426 0.12304579
000270 86 21 24 3d 05 49 f9 bc 01 a8 2c 3e 75 52 c1 3d
       0.040071033 -0.030430326 0.16860963 0.094395556
000280 f0 0f 26 3e 98 65 61 3e cf 7c 41 3d ff 3b e0 bd
       0.16217017 0.22011411 0.047238167 -0.10948943
000290 82 fb 15 3c 1b b7 2e 3c 2e 1f 87 3e 34 9a 16 3e
       0.009154202 0.010663773 0.26390976 0.14707261
0002a0 74 16 65 3e 65 bf 2c be 83 f0 a7 3e 0c 1e 83 3d
       0.22371846 -0.16869886 0.32800683 0.06402215
0002b0 13 7b ae 3c d2 bd 3f 3d 29 03 62 3d 86 ae 60 bd
       0.02129892 0.046811886 0.055178795 -0.05485394
0002c0 73 b4 9f bb 27 5d 6e bd 64 62 f2 3c 04 4a c0 bc
       -0.004873806 -0.058194306 0.029587932 -0.023472793
0002d0 df 0c 18 3e 27 f2 08 3e 4b 36 1d be 6e 99 6f 3d
       0.1484866 0.13373624 -0.15352742 0.05849593
0002e0 f6 d1 e5 bd d5 69 95 3d c7 dd 98 3d 2c 86 6a 3d
       -0.112216875 0.072955765 0.07464176 0.057256863
0002f0 fc 46 22 bd 4d 28 01 be 84 5f 8f be 4f 4d bc 3c
       -0.039618477 -0.1261303 -0.2800256 0.022986082
000300 1c 8f 1d bc 50 4b 06 be 11 bd 37 bd 8d 4c c8 3d
       -0.009616639 -0.13114667 -0.044858042 0.09780226
000310 b0 9d 25 3c 63 d2 2e 3e 1f 0b 87 bc 5e 31 1e 3e
       0.010108396 0.17072444 -0.016484795 0.1544852
000320 ca d4 35 3d 9a a4 8b 39 f2 88 1a bd 20 bf 51 bd
       0.044392385 0.00026634784 -0.037728257 -0.05120766
000330 fc 40 3c 3d d7 ac b6 3d 07 d4 01 3e 6a 06 55 bd
       0.04596041 0.08919685 0.12678538 -0.05200807
000340 01 ee 01 3d 9e 0b 91 bd 52 ad cf 3d 6d 09 ad 3d
       0.03172112 -0.07082294 0.1014048 0.084490635
000350 73 39 8c 3d b1 17 89 3d eb aa a9 3d 80 08 df 3d
       0.06846895 0.06693972 0.08284553 0.10890293
000360 65 39 39 3d af 71 0a be 18 b6 0f bb 8e f8 db 3d
       0.04522075 -0.1351993 -0.0021928605 0.107407674
000370 06 39 81 3e 7b f3 c9 3d 62 99 ad bd 1c a0 cf bd
       0.25238818 0.09860893 -0.08476521 -0.1013796
000380 06 55 0d be 68 ed cc 3b 6c 97 8e bd 52 eb 1d 3e
       -0.13801965 0.006253887 -0.06962475 0.15421799
000390 20 06 22 3e 2b 09 06 3d eb 8f a4 3d 83 e3 2b bc
       0.15822649 0.032723587 0.08035263 -0.010491255
0003a0 ea c0 4b 3d 78 64 67 3d 0d 2c 1c bc 83 44 05 3c
       0.049744524 0.0564923 -0.009531987 0.00813401
0003b0 32 b9 3b be 72 3c f3 3d ea 2d 51 bd 26 8e fe bd
       -0.18332365 0.118767634 -0.051069178 -0.124294564
0003c0 d8 06 59 3d f8 77 92 3c 49 17 cf 3d e5 d4 32 be
       0.052985042 0.017879471 0.10111863 -0.17464025
0003d0 f3 ac 4e be 1d 7a 83 bd e2 f2 41 bd cb 65 f6 3d
       -0.20183162 -0.06419776 -0.04735077 0.12031134
0003e0 5c 70 37 3e c7 b4 49 3d 2f fe 81 3d 69 ed 51 3d
       0.17913955 0.04924467 0.0634731 0.051251803
0003f0 9e b2 d0 ba c8 54 0f be d5 2c 2a 3d 24 2b 9e bd
       -0.0015922373 -0.13997185 0.04154666 -0.07723072

module.conv3.bias f4 [32]
000000 a9 d2 76 bd 3e 03 00 be c3 02 3b be 4a c1 12 be
       -0.060259495 -0.12501237 -0.18262772 -0.14331546
000010 cf 9b 44 bd 01 d4 c4 bc eb 59 ed 3c 2b 7f 77 be
       -0.048000153 -0.024026873 0.02897354 -0.24169604
000020 8f 4b 58 bd 71 24 ab bd d8 78 6c 3d 10 51 33 bd
       -0.052806433 -0.0835656 0.057732433 -0.04377848
000030 8c a1 84 be 7f e4 52 bd 50 70 02 be c5 b9 15 bd
       -0.259045 -0.051487442 -0.12738156 -0.036554117
000040 71 d2 cd bc f8 f8 07 3c 3e fb 00 3c 8b fc 01 bd
       -0.02512476 0.008299105 0.007872401 -0.031734984
000050 d3 c2 d6 bd d8 78 79 bd 61 11 62 3d 2a b8 0e bc
       -0.104863785 -0.06090626 0.055192355 -0.0087109
000060 76 5a 06 be 10 df ab 3c 27 79 5c bd 59 67 ad 3d
       -0.13120446 0.020980388 -0.053826477 0.084669776
000070 3f 3b e7 3c 98 06 af bd 81 39 1f be d3 02 01 be
       0.028226493 -0.085461795 -0.1554928 -0.12598734

module.bn3.weight f4 [32]
000000 41 d8 87 3f 7f 06 89 3f 03 0d 83 3f d7 e1 64 3f
       1.061287 1.0705107 1.0238346 0.89407104
000010 b5 e2 7e 3f 96 63 6d 3f f9 06 79 3f 2d e0 7a 3f
       0.9956468 0.9273008 0.97276264 0.97998315
000020 e5 3f 86 3f 14 ec 75 3f 7d a6 80 3f 70 d9 6c 3f
       1.0488249 0.9606335 1.0050808 0.92519283
000030 e2 01 87 3f 5b 71 7b 3f 6e 52 82 3f 92 a8 7f 3f
       1.054745 0.9821984 1.0181406 0.9986659
000040 db 1d 7b 3f ed a1 6d 3f 5a 2d 78 3f 87 aa 73 3f
       0.9809243 0.92825204 0.969442 0.9518208
000050 16 19 85 3f 04 6c 70 3f c0 c4 80 3f 12 75 78 3f
       1.0398281 0.9391482 1.0060043 0.97053635
000060 f9 fc 7c 3f c5 8a 7f 3f 17 81 7b 3f 91 b2 84 3f
       0.98823506 0.9982112 0.9824385 1.0366994
000070 76 f7 6e 3f 44 e9 70 3f ac f3 80 3f d6 b5 78 3f
       0.93346345 0.94105935 1.0074363 0.9715246

module.bn3.bias f4 [32]
000000 ab 75 23 be 89 8a f2 3d f0 7b 0f bd 60 93 12 be
       -0.15962856 0.1184283 -0.035030305 -0.14314032
000010 e1 bd c9 3e 16 b8 d1 bd 21 be ac 3e 70 44 86 3e
       0.3940268 -0.1024019 0.33738807 0.2622409
000020 3a d0 66 3e d8 ba f9 3e 8e e9 1a 3e a0 c2 04 be
       0.2254037 0.48775363 0.15128157 -0.12964869
000030 f3 c0 0c 3e 67 04 7c 3e ac 27 dd bd 7d 5b e4 3c
       0.1374548 0.24611054 -0.107985824 0.027875656
000040 06 42 98 3e b7 45 8d 3d 92 c0 46 3e fe b9 7f 3e
       0.29737872 0.06898063 0.19409397 0.24973294
000050 e4 58 bd 3d 8c a2 61 3d 02 b7 d0 3d f8 8c a0 bd
       0.0924547 0.055086657 0.10191156 -0.07839388
000060 93 61 02 3f 5d 26 2b bd f1 d0 a5 3d 5d 40 1f 3d
       0.50930136 -0.041784633 0.08096493 0.03887974
000070 8e 95 59 3d 68 84 04 be 75 65 69 3e 87 5d e6 bd
       0.053121142 -0.12941134 0.22792609 -0.11248308

module.bn3.running_mean f4 [32]
000000 2a b0 1c 3f 06 72 2c 3f 63 3e 49 3f 6d 95 0c 3f
       0.61206305 0.67361486 0.7861082 0.54915506
000010 b9 cf 9b 3e ca 1b a5 3f b5 c4 28 3f f8 fd a0 3e
       0.30431917 1.2899106 0.6592515 0.31443763
000020 07 e9 81 3e f8 ab 5b 3f 7c bd 05 3f d5 68 ce 3e
       0.25373098 0.8580928 0.52242255 0.40314355
000030 be b8 e9 3e 87 cb 0b 3f f4 1c 27 3e de 0d fa 3e
       0.4564876 0.54607433 0.16319638 0.48838705
000040 e7 fd f0 3e 57 e6 17 3f 76 4c c9 3e 18 9b 17 3f
       0.47068712 0.59335846 0.39316148 0.5922103
000050 c1 85 b1 3e c4 67 55 3f 86 f7 1f 3f f2 5c 4b 3f
       0.3467236 0.8336146 0.62487066 0.794387
000060 bc 63 f3 3e 2c b9 ca 3f 15 55 26 3f e8 4f 4e 3f
       0.4753703 1.583776 0.64973575 0.8059068
000070 91 02 92 3f a3 4d 0e 3f fc bf 36 3e e6 f3 ef 3e
       1.1407033 0.55587214 0.17846674 0.46865767

module.bn3.running_var f4 [32]
000000 0b 77 3f 3f ce d5 e5 3f 9e 1c 67 3f 8c 60 12 3f
       0.7479102 1.7955873 0.9027804 0.5717857
000010 ea ca a1 3e 12 c7 17 40 77 4a 66 3f 4a 51 b4 3e
       0.31600124 2.3715253 0.89957374 0.3521827
000020 a8 86 7d 3e 68 9b 95 3f 5a fd ec 3e a8 f9 ef 3e
       0.24758399 1.1688051 0.46287042 0.4687016
000030 b9 a5 60 3f 36 86 11 3f fa ae e6 3d 11 28 3c 3f
       0.8775287 0.56845415 0.11263843 0.73498636
000040 78 6f 8a 3f 71 33 27 3f 04 fb ab 3e 87 e7 60 3f
       1.0815268 0.6531287 0.33589947 0.8785328
000050 4d ea e6 3e 1d db ac 3f 37 81 54 3f 72 9c c9 3f
       0.45100632 1.3504368 0.83009666 1.5750868
000060 29 12 75 3f a9 d7 df 3f e0 34 14 3f ab 56 73 3f
       0.95730835 1.7487689 0.5789318 0.9505412
000070 0e 7e aa 3f 22 fe cb 3e ed 29 54 3e cb 36 2b 3f
       1.3319719 0.39842325 0.20719118 0.6688048

module.conv4.weight f4 [64, 32, 3, 3]
000000 85 8e 53 3d f4 af 70 3d 9c 1c 5d 3d 37 d4 de bd
       0.05164959 0.058761552 0.053982362 -0.108803205
000010 70 95 5f 3d 5d ee e2 3c 24 2c 09 be 9e 5a 10 bd
       0.054585874 0.027701551 -0.13395745 -0.03524267
000020 d6 7b b1 3b 4f 7e 74 bd 3d ec 7a bd 0e 31 4b bd
       0.0054163737 -0.05969077 -0.06126045 -0.04960733
000030 f1 43 55 bd d3 75 0e be 1b ff 9f bd a8 60 63 bc
       -0.052066747 -0.13912134 -0.078123294 -0.013878025
000040 fd 24 b9 3a 2e a0 88 bd 38 2e 11 3c 1c af 12 3d
       0.0014125403 -0.06671177 0.008861117 0.03581153
000050 bd 2f 2b 3d 08 10 df 3b 35 df 64 bb d9 82 85 bd
       0.041793574 0.006807331 -0.003492308 -0.06519098
000060 0a 0c 6d 3d fa a4 9f 3d 74 3d a6 3d 20 dc ce bd
       0.05787281 0.07795139 0.0811719 -0.10100579
000070 ab f6 ec 3d 3a 62 d4 3c 38 d3 14 3d 77 b5 a7 bb
       0.11570486 0.025925744 0.036334246 -0.005118068
000080 ca 65 30 3c 20 cf 4a bd d0 f9 5a 3d 0b 7f e5 3d
       0.010766456 -0.049513936 0.053460896 0.11205872
000090 24 e7 07 3c d2 25 01 3b fd cd ed 3d da 2a 93 bc
       0.008294854 0.001970638 0.11611555 -0.01796477
0000a0 d2 e2 fa 3c c2 a7 c9 3c 54 4e 06 3d 18 0b cb 3c
       0.030625734 0.024616126 0.032789543 0.024785563
0000b0 5c 6e 18 bd 3e 7f ca bd b7 cf 5e bc ba c1 73 bd
       -0.037214622 -0.09887551 -0.013599328 -0.059510924
0000c0 b3 43 0b 3e 80 38 27 3d 20 7a 3e 3d 03 2e d7 bd
       0.13600044 0.040825367 0.046503186 -0.10506823
0000d0 c1 ca d9 bd 18 03 2b 3d ba 47 40 bd 91 18 fb 3c
       -0.10634375 0.041750997 -0.046943404 0.030651363
0000e0 2f 2c 7f bd 7d 8b 0d bc 62 25 06 3e 38 df 53 bd
       -0.062297996 -0.008639214 0.13100198 -0.05172655
0000f0 94 84 9e bb 70 89 c7 bc 46 c1 7d bd e7 99 73 bd
       -0.004837582 -0.024357527 -0.061951898 -0.059472945
000100 67 75 37 be b9 46 8e bd 7a ff df 3a 56 5f d7 3c
       -0.17915879 -0.06947083 0.0017089688 0.026290577
000110 b7 02 8d 3d 65 c4 36 3e 25 5b fa 3d 4e 63 7c bc
       0.068852834 0.17848356 0.12224416 -0.015404535
000120 27 b4 99 3d a0 df 64 bc 15 88 07 3e 0f d3 76 3d
       0.075050645 -0.013969332 0.13235505 0.060259875
000130 e3 96 9e bd 28 80 89 bd 83 a3 c9 3d 3d 0c ba bc
       -0.07743623 -0.06713897 0.098456405 -0.022710914
000140 67 ec 9c 3d db a1 2c bd eb 52 19 bc 7a 44 a8 bd
       0.07662278 -0.042146545 -0.009358148 -0.08216186
000150 dc 78 d1 bd 90 2d 4f bd 26 8b 8a bd f8 bf e5 bd
       -0.1022813 -0.05058056 -0.06764822 -0.11218256
000160 2d 4b 14 be 4d 20 9e 3c cd 90 00 3e 26 90 5c bd
       -0.14481802 0.019302512 0.12555237 -0.05384841
000170 d6 a8 17 bd 40 c3 56 3d 03 92 63 3d 18 e3 3e ba
       -0.03702625 0.0524323 0.05555917 -0.00072817644
000180 7e 11 5e bd 31 6c ab bd 55 25 5e bd 4a 96 f2 bd
       -0.0542159 -0.08370245 -0.05423482 -0.118450716
000190 34 2e b0 bd 1c 46 a8 bd 33 ad 45 3b bd a0 99 3d
       -0.086025625 -0.08216497 0.003016305 0.075013615
0001a0 fd 75 16 3e 22 72 e9 3c 76 30 98 3b ef 0b 81 3d
       0.14693446 0.028496806 0.004644449 0.06301104
0001b0 b1 2f 94 3d 65 a8 a3 bc 96 78 35 bc 3f 67 99 3d
       0.07235659 -0.019977758 -0.011076113 0.07490396
0001c0 78 8a c4 3c b1 97 bb bd 97 86 ce 3c 0a 74 a0 bc
       0.023991808 -0.09159792 0.025210662 -0.019586582
0001d0 db 0d a6 bd bb e5 ed 3d 69 db 9f 3d 07 70 ed 3c
       -0.081081115 0.11616083 0.07805521 0.028984083
0001e0 51 e8 6b bd 1f 1b d2 bb 1c fd e7 bb 83 39 c7 bd
       -0.0575946 -0.0064119245 -0.0070797335 -0.09727766
0001f0 a5 bb 0a be be 55 a3 bc 5a 16 18 bd 5d f6 26 be
       -0.13548143 -0.019938346 -0.03713069 -0.16304918
000200 66 82 02 be 49 09 98 3d 2a ed fc 3d 79 a2 34 3e
       -0.12745056 0.07423646 0.12349923 0.17640103
000210 90 8f 88 bd d5 b8 f4 bc 33 19 1f bd f8 ca 3e 3b
       -0.066680074 -0.029873291 -0.03884239 0.0029112678
000220 d8 7b fa 3d 29 7d 69 bc 87 46 c4 bd c9 cb 34 bd
       0.122306526 -0.014251032 -0.095837645 -0.044139657
000230 86 bb 25 be 35 23 a9 bc c2 9e c8 bd 80 b4 fa 3c
       -0.16184816 -0.02064667 -0.09795906 0.030603647
000240 44 b5 f6 bd 20 70 1a 3d a8 6c cf 3d ba 69 39 be
       -0.120462924 0.037704587 0.101281464 -0.18106738
000250 ee 75 10 be 72 70 3b be 13 9a 26 3d 07 2b 18 bd
       -0.14107487 -0.18304613 0.04067428 -0.03715041
000260 b1 b3 18 3e cb bc a5 3d ab 9a a4 bc 1d dc f9 bd
       0.14912297 0.0809265 -0.020093283 -0.122001864
000270 95 b0 b8 3b cc 14 e1 bc 4f bd 33 bd 31 2e e8 3d
       0.0056362846 -0.027475737 -0.04388171 0.11336935
000280 29 7b 6a bc 85 25 e2 bc 4d c3 21 3d 31 8a 9b bd
       -0.01431159 -0.027605781 0.039492894 -0.07594717
000290 f4 a9 8a be e4 9c 24 be 25 de 3c be 28 85 da bd
       -0.2708279 -0.16075474 -0.18444116 -0.10669929
0002a0 4d ec e4 3c cc 4a b3 bd f8 3b 08 bd 24 f7 38 bd
       0.027944708 -0.08754501 -0.033260316 -0.045157567
0002b0 53 32 c9 bd 9a 5e b5 be e7 de 69 bc 51 b2 00 bd
       -0.09824052 -0.35423738 -0.0142743355 -0.031420056
0002c0 44 d0 23 3b 1b 88 4b 3d 60 4f df bd a0 0b 06 be
       0.0024995962 0.049690347 -0.109038115 -0.13090372
0002d0 b8 dc 57 bd b6 b4 4d 3b 24 b4 dc 3c a5 a6 1b be
       -0.05270073 0.003138823 0.026941366 -0.15200289
0002e0 36 2c 17 3e 49 3b 2e bd a6 f5 99 bd f0 77 05 3d
       0.14762959 -0.042537007 -0.07517557 0.032585084
0002f0 66 4a a6 3c f7 c3 02 39 7d e8 6c 3d 5d 1e 8a 3e
       0.020299148 0.00012470769 0.057838906 0.2697629
000300 64 a3 bd 3b 18 ba a3 3c 00 4b 09 3e 7d 4d 82 bc
       0.0057873 0.019986197 0.13407516 -0.01590609
000310 34 a1 cb bd 67 b2 4b bc 1b ae f2 bd ec 42 62 bc
       -0.099428564 -0.012432671 -0.11849614 -0.013809901
000320 d3 a8 be bc 7f c0 15 be 81 d4 27 3d de f4 30 be
       -0.023273861 -0.14624213 0.040974144 -0.1728091
000330 49 c3 08 be 72 55 e1 bd 72 1c ef bc 1b 65 fb 3d
       -0.13355745 -0.110026255 -0.029188368 0.12275144
000340 92 25 40 3c f6 e1 ba 3c 2d 26 70 3d 72 96 62 3c
       0.011727707 0.022812825 0.058630157 0.013829814
000350 3f dc 51 3e 30 3f 25 3d eb 73 41 3d 73 20 0c 3d
       0.20494173 0.040343463 0.04722969 0.034210633
000360 29 9e fe 3d a1 69 d6 3c 1c b5 29 3d 7f c5 9c bc
       0.124325104 0.026173415 0.041432485 -0.019137142
000370 8b 65 db 3c 88 92 bf 3c 7d 67 c2 bd bd b4 b6 3d
       0.026781818 0.023385301 -0.09492395 0.08921192
000380 fa 9a e3 bd d1 25 a3 bc 4f 01 91 3d 11 1d 08 be
       -0.11113544 -0.019915493 0.07080328 -0.13292338
000390 e8 fd 8f bc 06 49 67 be 49 a5 47 3d 03 0f 9a bd
       -0.017577127 -0.2258645 0.048741613 -0.075223945
0003a0 e1 5e 2d 3d a1 91 b1 3d bc b0 19 be 8f ae 9c 3d
       0.04232681 0.08670355 -0.15008825 0.07650482
0003b0 a9 1e ec 3b b7 4f fa 3d c1 e0 b0 bd 10 a5 8e 3d
       0.0072058034 0.12222236 -0.086366184 0.06965077
0003c0 24 39 d2 bd d7 2f d6 bc f7 83 f7 bc 2c 82 09 3e
       -0.10264805 -0.026145859 -0.030214293 0.13428563
0003d0 8b 4c ad 3d 4b 5a 95 3d 01 35 2e 3d d7 d9 df bc
       0.08461865 0.07292613 0.042531017 -0.027325554
0003e0 28 64 72 3d 51 36 9a 3d 3b f3 09 3e fc 10 e4 bc
       0.059177548 0.07529891 0.13471691 -0.02784013
0003f0 99 47 d5 3d bb b5 ab 3d 02 97 0d bd eb 18 43 bd
       0.10414047 0.08384272 -0.03456784 -0.047631186

module.conv4.bias f4 [64]
000000 7b 39 25 bd ca 97 9d be 0a a9 69 bd 5c e3 8c be
       -0.04033802 -0.30779868 -0.057045974 -0.2751721
000010 1a 50 ea bc 90 59 a4 be f0 28 b4 3c 16 fa d3 bd
       -0.028602649 -0.3209958 0.021992177 -0.103504345
000020 fe 6b 61 be 9d 61 d0 be 07 25 41 be ca 5d 9d be
       -0.22013852 -0.40699473 -0.18861781 -0.30735618
000030 ab 25 28 be c1 ff e8 3d 71 67 3c be 91 70 2d be
       -0.16420619 0.11376906 -0.18398835 -0.16937472
000040 31 1b 0f be 14 39 5a be d8 1b 12 be be 87 82 bd
       -0.13975216 -0.21310836 -0.14268434 -0.06373547
000050 c2 a9 30 be 13 25 d5 ba d8 41 60 be ab 14 bd bd
       -0.17252257 -0.0016261659 -0.21900117 -0.09232458
000060 f4 3c a0 be 84 29 a4 bd f2 42 fc bd 97 70 a7 be
       -0.31296504 -0.08015731 -0.12317456 -0.32703087
000070 e6 6a 1a be 88 de 06 be a7 9c e4 3c b1 bc f3 bd
       -0.15079841 -0.13170826 0.027906729 -0.119012244
000080 f4 1a 87 be ca 1b ff bc 12 72 68 bc ab 9b 9c 3c
       -0.2638775 -0.03114118 -0.014187353 0.019117197
000090 a1 bb 1b be 79 6f bd be bb 5e 0a be 83 73 aa be
       -0.15208293 -0.3699911 -0.135127 -0.33291253
0000a0 59 78 72 be a3 74 a7 be 0f 6b 03 be 7b 60 3c 3b
       -0.23678721 -0.32706174 -0.12833808 0.002874403
0000b0 af 7b 65 bd 6d db c4 be 9f 7e 09 be 95 ae 67 bb
       -0.056026157 -0.3844866 -0.13427208 -0.0035351862
0000c0 98 f7 44 bc 57 a3 c8 bd 36 40 90 be ee c1 6d be
       -0.012021922 -0.097967796 -0.2817399 -0.2321851
0000d0 c4 20 23 be 94 66 a3 3c 38 d6 30 be 42 f4 9f bd
       -0.15930468 0.019946374 -0.17269218 -0.0781026
0000e0 ff 97 35 be 0c 6a 39 bd 4b 7a a8 bd 4b a5 1e be
       -0.17733763 -0.04526715 -0.082264505 -0.15492742
0000f0 c9 46 9b 3b 4f 2e 3e bd 78 82 1f 3d 52 fc af bd
       0.004738663 -0.046430882 0.038942784 -0.08593048

module.bn4.weight f4 [64]
000000 82 0e b4 3f 4a 7b d1 3f ad e4 cb 3f d7 82 c6 3f
       1.4066927 1.636575 1.5929161 1.5508679
000010 5f a6 be 3f 87 d2 c8 3f 46 59 c7 3f 0a ae c5 3f
       1.4894522 1.5689248 1.5574119 1.5443738
000020 61 ba bf 3f bf b5 d6 3f cd 5c c6 3f df c3 cd 3f
       1.4978753 1.6774215 1.549707 1.60754
000030 63 c8 ce 3f 92 ae c6 3f 5d 14 d4 3f 49 60 d3 3f
       1.6154903 1.5522025 1.6568714 1.6513759
000040 aa 81 c5 3f 6d 63 c8 3f bc f7 bc 3f 71 81 ca 3f
       1.5430195 1.5655342 1.4763103 1.5820752
000050 c3 24 b8 3f b1 8c d6 3f 9d ed be 3f 62 99 c7 3f
       1.4386219 1.6761686 1.4916264 1.5593684
000060 70 89 c6 3f 1f 35 c4 3f 43 8f d2 3f 15 49 ca 3f
       1.5510693 1.5328711 1.644997 1.5803553
000070 e0 10 cc 3f 07 cb bb 3f ee 8c b6 3f 47 32 bf 3f
       1.594265 1.4671334 1.4261758 1.4937218
000080 fc dd bf 3f bf 87 c1 3f 96 20 bf 3f 7c ea cf 3f
       1.4989619 1.5119551 1.493182 1.6243434
000090 32 f6 c9 3f 5d ce c4 3f bf ed ca 3f 21 60 bc 3f
       1.5778258 1.5375477 1.5853804 1.4716836
0000a0 c4 f8 bc 3f a6 97 dc 3f 83 e8 bc 3f d6 2e b1 3f
       1.4763417 1.723378 1.4758457 1.3842418
0000b0 f2 48 b3 3f 8e da c0 3f 9d 3c cd 3f 6d ad c6 3f
       1.4006636 1.5066698 1.6034123 1.5521675
0000c0 4c ad b6 3f fd 30 ce 3f 9d e1 d3 3f 1c 52 cd 3f
       1.4271636 1.61087 1.6553227 1.6040683
0000d0 21 16 d4 3f 62 80 ce 3f 05 eb bb 3f c4 43 ba 3f
       1.6569253 1.6132929 1.4681097 1.455193
0000e0 4e e0 b3 3f 75 f7 b0 3f 1d 7a c6 3f 12 11 af 3f
       1.4052827 1.3825518 1.5506016 1.3677084
0000f0 f0 78 bb 3f 8a 77 b0 3f f9 69 b9 3f 1d 39 c9 3f
       1.4646282 1.378648 1.4485465 1.5720555

module.bn4.bias f4 [64]
000000 eb 17 ef 3d 40 e2 b2 3d 54 ba 36 3e 81 1c 04 be
       0.11674484 0.0873456 0.17844516 -0.12901498
000010 b1 20 21 bc 0e 20 d1 bd 28 6d d0 3d 2c cd 46 3d
       -0.009834454 -0.10211192 0.1017707 0.04853551
000020 ec a4 c7 3d 31 70 d8 bd dc e0 f2 3d de fd e9 3d
       0.09748253 -0.10568274 0.11859295 0.114253744
000030 53 5b 36 bd 13 91 16 bd 38 0b c3 bd 04 46 2b bd
       -0.044520687 -0.036759447 -0.09523624 -0.04181482
000040 e2 ad 5a bd 7e ec 04 3e df 7d be bd ec a5 1a 3e
       -0.053388484 0.1298084 -0.09301352 0.15102357
000050 20 d6 07 be 29 e6 96 bd 27 ae 10 be d6 99 29 be
       -0.13265276 -0.07368118 -0.14128934 -0.1656259
000060 0a 32 86 3d bb ed ac bd 6a dc f9 3d 8b 47 51 3d
       0.06552513 -0.08443781 0.12200244 0.05109362
000070 bf 2c 21 bd 2e 07 0e be d1 33 d0 bd e0 d4 8b bd
       -0.039349314 -0.13869926 -0.10166133 -0.06827712
000080 b9 24 53 bc ba d0 f4 3d 97 f0 ef 3c fb 5f 06 3e
       -0.012887173 0.11953874 0.029289527 0.13122551
000090 02 ae 51 bd a0 79 c2 bd 2b d5 e4 3b d9 fe d4 bd
       -0.051191337 -0.094958544 0.0069834194 -0.10400171
0000a0 5a 26 84 bd e4 54 ee bd 0b 2c 1c be 88 59 b7 3d
       -0.064526275 -0.11637285 -0.15251176 0.089526236
0000b0 83 6c aa 3a c9 af e0 bd 2e 61 9e 3d 4f b9 d3 bd
       0.001300231 -0.10971028 0.07733379 -0.10338079
0000c0 58 34 e1 bd 06 1d 8f 3d 04 ae 00 3e b2 90 4b be
       -0.10996312 0.06987958 0.12566382 -0.19879416
0000d0 1d d0 f9 3d 7b 9e 5b bd f1 21 0e be e1 24 a2 3d
       0.121978976 -0.053617936 -0.13880135 0.0791719
0000e0 58 a3 1c be f8 2b ff 3d d8 4e 04 bd 4f 27 f8 bd
       -0.15296686 0.12459558 -0.032301754 -0.121168725
0000f0 67 66 bf bd 80 3a 03 be b2 48 bf bd 52 8d 98 3b
       -0.093457036 -0.12815285 -0.093400374 0.0046555186

module.bn4.running_mean f4 [64]
000000 fb a7 5c 3e f1 e7 21 3e 32 a1 c5 3e 66 c5 4a 3f
       0.21548454 0.15811135 0.38599545 0.79207456
000010 78 e2 99 3e 13 23 6b 3e 45 50 9f 3e 38 ba c2 3e
       0.30055594 0.22962599 0.31115928 0.380327
000020 32 96 31 3e 84 70 24 3e 48 0a 30 3e 8b 37 a4 3d
       0.17342451 0.16058546 0.17191422 0.080184065
000030 f0 fd 89 3e eb 3f b4 3e d6 78 12 3e a2 a0 65 3e
       0.2695155 0.35205016 0.14303908 0.22424558
000040 c5 44 f9 3e ad 28 9c 3d a2 1c cb 3e d0 d2 51 3e
       0.4868528 0.07624946 0.39670283 0.20490575
000050 9e e8 8d 3d 86 b4 ad 3d c8 09 5a 3e ea b6 84 3e
       0.06929134 0.08481698 0.21292794 0.25920802
000060 18 c7 9d 3d 86 58 2b 3e 3f 36 f7 3d 3e 15 42 3e
       0.0770399 0.16732988 0.120708935 0.18953416
000070 8f f2 b5 3e 2c 2e 0a 3f bb 77 e7 3e 4e 46 8c 3e
       0.3553662 0.539767 0.45208535 0.27397388
000080 0b 7c b4 3d 82 e8 94 3e fe 11 2d 3f 02 e9 a6 3e
       0.08812722 0.2908364 0.6760558 0.32599646
000090 a4 15 0e 3e fb ab 4a 3e 9f f6 43 3e 98 d4 9c 3e
       0.13875443 0.19792168 0.19137047 0.30630946
0000a0 b0 bc 43 3e 4e ab 4b 3d 1b c6 06 3e ea c0 15 3f
       0.19114947 0.049723916 0.13161509 0.5849749
0000b0 c8 5e 1e 3f a1 56 83 3e 69 36 8f 3d 9f 0a d2 3e
       0.61863375 0.2565203 0.069928 0.41023728
0000c0 39 90 48 3f 4c 0d 50 3e 86 ea c0 3d 1c b9 33 3e
       0.78345066 0.20317572 0.09419732 0.17551082
0000d0 ee 4d 26 3e 97 28 b3 3e 85 b4 44 3e 03 06 9d 3e
       0.16240665 0.34991905 0.19209488 0.3066865
0000e0 89 b0 d4 3e 94 be 2b 3f c3 80 02 3f 73 bf b2 3e
       0.41540936 0.67087674 0.50977725 0.3491169
0000f0 07 a5 4d 3e e7 09 46 3f bf 7a 04 3e 5c d7 72 3e
       0.20082484 0.7735886 0.12937449 0.23714966

module.bn4.running_var f4 [64]
000000 45 5f 56 3e af d5 39 3e 35 7d cd 3e 39 1b 88 3f
       0.2093478 0.1814792 0.40134588 1.0633308
000010 46 03 b4 3e 56 11 66 3e 6c e1 a4 3e 44 1e d5 3e
       0.35158747 0.2246755 0.32203233 0.41624653
000020 98 b0 36 3e 5d 77 49 3e dd ed 1a 3e 55 dc 87 3d
       0.17840803 0.1967444 0.151298 0.06633822
000030 6f b5 87 3e 31 02 a5 3e 95 f3 f8 3d aa ba 63 3e
       0.2650561 0.32228234 0.121558346 0.22239175
000040 2e 0b 0e 3f 1c c9 8f 3d ae bf da 3e 46 88 2b 3e
       0.5548581 0.070207804 0.42724365 0.16751203
000050 6a 67 43 3d ca ca 96 3d 16 3e 80 3e 50 36 91 3e
       0.047706045 0.07362898 0.25047368 0.2836175
000060 d5 47 84 3d b3 c3 16 3e fa c1 df 3d 1b 82 58 3e
       0.064590134 0.14723091 0.1092567 0.21143381
000070 3f 36 08 3f ab d2 12 3f b8 75 1c 3f 74 f6 84 3e
       0.5320777 0.57352704 0.61117125 0.2596928
000080 c4 fd b8 3d 2c 0b 89 3e e2 cf 3e 3f ca 5e 8a 3e
       0.09032777 0.26766336 0.74535954 0.27025443
000090 04 e2 08 3e 82 3c 87 3e 1f d9 59 3e da e9 c9 3e
       0.13367468 0.2641335 0.21274231 0.39436227
0000a0 4b c2 28 3e 8b ff 09 3d e4 e9 04 3e 2e 1b 1e 3f
       0.16480367 0.03369097 0.12979847 0.6176022
0000b0 84 7c 32 3f de 66 ae 3e a7 f2 58 3d 69 36 e6 3e
       0.69721246 0.34062856 0.052965786 0.44963387
0000c0 d6 c1 48 3f 68 d0 5d 3e 49 64 99 3d 14 f7 73 3e
       0.7842077 0.21661532 0.07489831 0.23824722
0000d0 d4 94 38 3e 88 04 03 3f 2d 42 53 3e b2 1a a2 3e
       0.18025523 0.5117879 0.20630713 0.31660992
0000e0 a7 c2 ef 3e 46 5d 51 3f 26 12 3d 3f b1 ae a4 3e
       0.46828195 0.8178295 0.7385582 0.3216453
0000f0 1b aa 4c 3e f7 d9 42 3f a2 b7 d3 3d c6 4d 8d 3e
       0.19986765 0.7611384 0.103377596 0.275984
